learning_steps_strategy/cifar_net.pth (torch, 251401 bytes, 10 tensors)

conv1.weight f4 [6, 3, 5, 5]
-0.06909969 -0.056282252 0.025187606 -0.031885173 0.16062245 0.02192127 -0.06430565 0.09767272
0.087643385 -0.028354742 0.07567578 0.05991991 0.071515456 -0.097609766 -0.06111363 0.118736
-0.01649023 0.09862829 0.039390568 0.022652952 0.057643194 0.10526678 -0.057173543 -0.002173217
-0.010039948 -0.09510225 0.11327388 -0.019360382 -0.09876489 -0.09964756 0.022016343 0.16482297
-0.04633287 -0.17116484 -0.24502137 0.22135536 0.03357342 0.07078453 -0.14020778 -0.0924823
0.15719718 0.015821205 -0.13856031 -0.21641047 -0.21182361 0.11458012 -0.06411135 -0.12586753
-0.108200036 -0.011074115 0.025276449 -0.013806111 0.080173366 -0.089097545 -0.10416792 0.05995127
0.19812295 0.080583304 0.0033799352 -0.08623032 0.098745145 0.18191199 0.06404614 -0.09972255
-0.16669859 0.12670042 0.18776415 0.03226296 -0.045834698 -0.033411566 0.14723116 0.11398093
-0.06370092 0.0068828645 -0.04459592 0.1138761 0.10672533 0.05902223 0.17988065 0.071923204
-0.012949297 0.14713046 0.1845274 0.26375148 0.108121075 0.1019237 0.2925768 0.18249327
0.22305462 -0.06501173 -0.093398675 -0.05761003 -0.052601896 -0.15200168 -0.024326088 -0.08898574
-0.10410141 -0.20720653 -0.17523666 -0.1982728 -0.09207115 0.045681465 -0.07941692 -0.15785497
-0.14972408 -0.06799034 0.12390797 0.1150972 0.060853958 0.026821144 -0.10551841 0.10190168
-0.061114546 -0.06366998 -0.08133449 -0.14912602 -0.201933 -0.20192952 -0.2365144 -0.110529095
-0.15005587 -0.104236774 0.0021465542 -0.079253465 0.013592672 0.0576538 0.052844845 -0.07035074
-0.04420678 0.029801134 -0.10471893 0.007877041 -0.12756947 -0.08752879 0.079785325 0.07858284
0.07212737 -0.0020940104 0.12161555 0.06011045 -0.017673038 0.08106835 0.026863866 -0.028734103
0.03245819 0.04744049 0.19152254 -0.053405214 0.13748243 0.14403509 -0.06882553 0.04543274
0.0051259813 0.16784257 0.18183587 -0.047476698 -0.17411111 -0.1807274 -0.21107064 -0.17105687
0.23925813 0.15728031 0.15855141 0.14856336 -0.032655526 -0.037467066 -0.08635476 -0.0015412184
0.07251976 0.13416438 -0.23195755 -0.21450615 -0.12627503 -0.13572459 -0.16023366 0.07388442
-0.044610552 -0.057375524 0.03562345 -0.00015371997 -0.0606879 -0.13468875 -0.2315496 -0.24694265
-0.19332653 0.26115945 0.14880478 0.18998905 0.21301675 0.16155788 -0.054167703 0.18591651
0.1749938 0.17768224 0.0318532 -0.014522177 -0.09657484 -0.057829432 -0.08957783 0.049259424
-0.08869068 0.05684487 0.0629833 0.026676867 -0.105092146 -0.021471199 -0.21173106 -0.20798233
-0.24286664 -0.061119866 0.05122956 0.2061983 0.22150198 0.06020506 0.020298215 0.08232892
0.13707533 0.08167776 0.07898445 -0.014498216 0.0178144 0.0074929995 -0.11133122 -0.05814482
0.04050698 -0.04967142 -0.021675223 -0.11827826 -0.040504493 -0.05356816 -0.084923975 -0.22210988
-0.03678176 -0.054931797 -0.06989197 -0.21763092 -0.2202628 -0.12467065 -0.21034302 -0.04079938
-0.11754584 -0.00071154477 -0.04704108 -0.039454013 0.026893228 -0.06914512 -0.123825535 -0.088712
-0.111879796 0.0022634445 -0.044357665 0.08013229 -0.06744352 0.017562734 0.092222035 0.08174261
00000000: 2384 8dbd 3888 66bd 3d56 ce3c 079a 02bd
00000010: 367a 243e 3c94 b33c aeb2 83bd a308 c83d
00000020: 607e b33d 3448 e8bc e7fb 9a3d 946e 753d
00000030: b276 923d a1e7 c7bd 4952 7abd dc2b f33d
00000040: 8516 87bc a1fd c93d 0158 213d af92 b93c
00000050: 451b 6c3d 1c96 d73d ce2e 6abd 886c 0ebb
00000060: 987e 24bc f8c4 c2bd 23fc e73d aa99 9ebc
00000070: 3f45 cabd 0514 ccbd 9e5b b43c 5ac7 283e
00000080: 89c7 3dbd d645 2fbe e2e6 7abe fbaa 623e
00000090: 4884 093d 7bf7 903d a192 0fbe 5c67 bdbd
000000a0: 4cf8 203e 799b 813c c1e2 0dbe b59a 5dbe
000000b0: 4ae8 58be fba8 ea3d d04c 83bd 6be3 00be
000000c0: fb97 ddbd 3470 35bc 8e10 cf3c 0733 62bc
000000d0: ef31 a43d c678 b6bd fe55 d5bd 778f 753d
000000e0: bee0 4a3e dc08 a53d e781 5d3b 8699 b0bd
000000f0: e53a ca3d 2347 3a3e 9f2a 833d 563b ccbd
00000100: 09b3 2abe c1bd 013e 3f45 403e 2a26 043d
00000110: 2abd 3bbd 91da 08bd c4c3 163e d56e e93d
00000120: a175 82bd a789 e13b 36aa 36bd df37 e93d
00000130: cf92 da3d 4bc1 713d a232 383e 794c 933d
00000140: 4a29 54bc 5ea9 163e c0f4 3c3e 6f0a 873e
00000150: 956e dd3d 5fbd d03d a0cc 953e 84df 3a3e
00000160: 6e68 643e df24 85bd ce47 bfbd 7ff8 6bbd
00000170: 1675 57bd 54a6 1bbe 8147 c7bc 283e b6bd
00000180: 1f33 d5bd f32d 54be 3d71 33be 0608 4bbe
00000190: cd8f bcbd 7d1c 3b3d 57a5 a2bd bca4 21be
000001a0: 4551 19be 853e 8bbd 76c3 fd3d 15b8 eb3d
000001b0: 0042 793d 04b8 db3c 091a d8bd d4b1 d03d
000001c0: 3f53 7abd 6865 82bd b292 a6bd 7eb4 18be
000001d0: 86c7 4ebe 9dc6 4ebe d530 72be 145d e2bd
000001e0: 3fa8 19be 177a d5bd 34ad 0c3b a44f a2bd
000001f0: ccb3 5e3c 6426 6c3d d673 583d 0c14 90bd
00000200: 2b12 35bd 8221 f43c e176 d6bd b40e 013c
00000210: 92a1 02be 4b42 b3bd 7d66 a33d 0af0 a03d
00000220: 84b7 933d aa3b 09bb 9311 f93d 6036 763d
00000230: 0cc7 90bc 2a07 a63d 9c11 dc3c c863 ebbc
00000240: e1f2 043d f650 423d 7c1e 443e 6dbf 5abd
00000250: 32c8 0c3e ef7d 133e 66f4 8cbd ae17 3a3d
00000260: d9f7 a73b ecde 2b3e 2f33 3a3e ed76 42bd
00000270: 2f4a 32be 9b10 39be e722 58be 8829 2fbe
00000280: 1500 753e 170e 213e 4d5b 223e fe20 183e
00000290: cdc1 05bd 1177 19bd c4da b0bd b502 caba
000002a0: 3d85 943d 6362 093e 4886 6dbe 80a7 5bbe
000002b0: 3e4e 01be 63fb 0abe 4b14 24be b750 973d
000002c0: 8eb9 36bd 9902 6bbd e5e9 113d e42f 21b9
000002d0: e093 78bd d9eb 09be 571b 6dbe 89de 7cbe
000002e0: 64f7 45be b1b6 853e 4860 183e 7d8c 423e
000002f0: 1021 5a3e 6e6f 253e f4de 5dbd e660 3e3e
00000300: 9331 333e 55f2 353e 8078 023d 6dee 6dbc
00000310: 08c9 c5bd 8ede 6cbd 9574 b7bd 40c4 493d
00000320: 76a3 b5bd 2bd6 683d 63fd 803d 7289 da3c
00000330: 8d3a d7bd 5ee4 afbc 07d0 58be 52f9 54be
00000340: 08b2 78be d358 7abd 16d6 513d a625 533e
00000350: 6ad1 623e 9599 763d 7148 a63c 119c a83d
00000360: 7a5d 0c3e ab46 a73d 99c2 a13d ed89 6dbc
00000370: 81ef 913c d687 f53b 9f01 e4bd 4329 6ebd
00000380: a6ea 253d 4274 4bbd 3d90 b1bc df3b f2bd
00000390: 0ae8 25bd 496a 5bbd 9fec adbd c670 63be
000003a0: 79a8 16bd 2a00 61bd 8523 8fbd a4da 5ebe
000003b0: 928c 61be 5353 ffbd 2964 57be 401d 27bd
000003c0: e0bb f0bd f686 3aba 26ae 40bd 889a 21bd
000003d0: 304f dc3c f59b 8dbd 3e98 fdbd a3ae b5bd
000003e0: 3c21 e5bd 4c56 143b 62b0 35bd 661c a43d
000003f0: d41f 8abd b9df 8f3c e8de bc3d ab68 a73d

conv1.bias f4 [6]
-0.14407907 -0.43852288 -0.40517825 -0.13847657 -0.2075065 -0.2746488
00000000: 7789 13be 1286 e0be 8673 cfbe cdcc 0dbe
00000010: 957c 54be c49e 8cbe

conv2.weight f4 [16, 6, 5, 5]
-0.02945736 -0.082990445 -0.13436034 -0.023506198 -0.00055745436 0.003248866 -0.0715242 0.04037157
-0.040929053 -0.044717055 0.11997044 -0.036416978 -0.2190783 -0.1350508 -0.13152307 0.20548418
0.0012017775 -0.14555281 -0.080478586 -0.15922473 -0.05960221 -0.025882253 -0.13128756 -0.238304
-0.17083573 0.09766362 0.15356044 0.1041911 0.03316366 -0.033081595 0.026742557 0.09062641
0.051670182 0.042660296 0.032945443 0.1546023 0.18193218 0.25324932 0.24043375 0.016454829
-0.00887153 0.08716495 0.20344567 0.09063507 0.07661972 -0.48930815 -0.47082037 -0.30886656
-0.024145437 0.076345064 -0.015915807 0.055863854 0.012099606 0.03360769 -0.16447486 0.011626532
0.115252264 0.10171066 0.14372726 -0.0805668 0.13508599 0.18916988 0.17811307 0.090750925
-0.14741497 0.3327783 0.23688564 0.19224587 0.06065975 0.07370708 0.11683254 0.100834936
0.13198079 0.053169787 -0.14148147 0.02753416 -0.02289888 0.080514334 0.1191544 -0.15568908
-0.01907699 0.1083519 0.026771523 -0.061598487 -0.08311537 0.07250638 0.09306396 0.06910291
0.084791146 -0.095407195 0.03088111 -0.011454691 -0.040106025 0.006792034 -0.15597048 -0.026309159
-0.24503285 -0.25563538 -0.1513542 -0.21904442 -0.20539246 0.010762709 -0.14051805 -0.06930738
0.13400519 -0.019772157 0.02462422 0.069831 -0.02169756 0.11369064 0.019537283 0.055010904
0.08397889 0.15683547 0.15398186 -0.01094324 0.08391811 0.15536864 0.1418916 0.035143454
-0.06114339 -0.0894539 -0.16207135 -0.122237176 -0.229778 0.12005665 0.0829376 0.07022915
0.035487942 0.15551676 -0.03683034 0.07348657 0.03185079 0.13912813 0.08495126 0.16061524
0.033305574 -0.040267363 0.08323777 0.052731108 -0.10215957 -0.09182926 -0.107770465 -0.060395874
-0.18370481 -0.43249896 -0.52669287 -0.48406476 -0.5405973 -0.606308 -0.028095493 0.014428413
-0.25164476 -0.24208045 -0.09359401 0.0069233566 0.05017491 -0.20754804 -0.0030677703 0.120206505
-0.06692238 -0.027196316 -0.077741414 0.00029600214 0.07343728 -0.18420085 -0.1327621 0.013060083
-0.075330704 -0.005505754 -0.10882082 -0.10398565 -0.10922756 -0.03961182 -0.1333381 -0.015895648
-0.012230932 -0.03360899 0.039929975 0.051394574 -0.14312075 -0.0897687 -0.064677335 0.085301764
-0.00014251343 0.024507267 0.048513185 0.032329764 -0.076485425 -0.06844125 -0.0475416 -0.062166184
-0.05168666 -0.17824389 -0.14040342 0.088437505 -0.07699405 -0.12139939 -0.13966906 -0.07014308
0.0039639845 -0.16573933 -0.055906545 0.056453988 0.11645698 -0.06437951 0.11556679 0.16980897
0.17597632 -0.017442603 0.069594026 0.0038376884 0.0011040166 0.117519535 -0.032774225 -0.26722106
-0.083098546 -0.13713606 -0.036917 -0.09670542 -0.07340331 -0.07278753 -0.092940785 -0.14246938
0.046859097 -0.11081568 -0.16109669 0.016132018 -0.0037782092 -0.08853578 -0.11280384 -0.01968606
-0.10730898 -0.0932134 -0.054707095 -0.1132871 0.03552116 -0.04957304 0.002807072 0.008631482
-0.060150433 -0.016284099 0.099334285 0.08826635 0.10104218 0.029470865 0.16675131 0.14070117
-0.004342357 0.11462535 0.10452607 0.13669486 0.20735915 -0.01237767 0.052926205 0.20048052
00000000: 9050 f1bc e5f6 a9bd c295 09be 1290 c0bc
00000010: 2122 12ba edea 543b 487b 92bd a95c 253d
00000020: 39a5 27bd 3b29 37bd 10b3 f53d f829 15bd
00000030: 1056 60be c24a 0abe fcad 06be 726a 523e
00000040: f684 9d3a cc0b 15be f5d1 a4bd cf0b 23be
00000050: 7221 74bd 0507 d4bc 3f70 06be f705 74be
00000060: 90ef 2ebe dd03 c83d f33e 1d3e 2562 d53d
00000070: 9ed6 073d 9180 07bd 3513 db3c 579a b93d
00000080: 1da4 533d 90bc 2e3d cdf1 063d 1150 1e3e
00000090: 6e4c 3a3e e5a9 813e 4434 763e 47cc 863c
000000a0: e559 11bc 8a83 b23d 1054 503e e19e b93d
000000b0: cdea 9c3d 9986 fabe 5e0f f1be c223 9ebe
000000c0: a7cc c5bc cd5a 9c3d de61 82bc 7fd1 643d
000000d0: 6d3d 463c 38a8 093d 196c 28be 367d 3e3c
000000e0: 6109 ec3d ae4d d03d 3d2d 133e 3500 a5bd
000000f0: fb53 0a3e c0b5 413e 4663 363e 9fdb b93d
00000100: f3f3 16be eb61 aa3e 2692 723e 1adc 443e
00000110: 5c76 783d bdf3 963d e645 ef3d 8c82 ce3d
00000120: f925 073e 90c8 593d 85e0 10be 528f e13c
00000130: 6f96 bbbc b3e4 a43d 3907 f43d f56c 1fbe
00000140: 5947 9cbc 9ae7 dd3d f44f db3c b24e 7cbd
00000150: 6438 aabd 3a7e 943d 5198 be3d d485 8d3d
00000160: fba6 ad3d d964 c3bd 62fa fc3c 75ac 3bbc
00000170: 3746 24bd b68f de3b bab6 1fbe 4e86 d7bc
00000180: e4e9 7abe a4e2 82be 98fc 1abe 2e4d 60be
00000190: 6752 52be 1356 303c f7e3 0fbe 07f1 8dbd
000001a0: a838 093e 38f9 a1bc bbb8 c93c 8e03 8f3d
000001b0: 15bf b1bc a3d6 e83d a70c a03c 1d53 613d
000001c0: 20fd ab3d 7a99 203e 6cad 1d3e 464b 33bc
000001d0: 42dd ab3d f518 1f3e 084c 113e 95f2 0f3d
000001e0: 7e71 7abd 9b33 b7bd 08f6 25be 7c57 fabd
000001f0: ed4a 6bbe 43e0 f53d 30db a93d 4dd4 8f3d
00000200: ce5b 113d c93f 1f3e 69db 16bd 2080 963d
00000210: f975 023d 9b77 0e3e edfa ad3d 5278 243e
00000220: 6d6b 083d 64ef 24bd 9078 aa3d 93fc 573d
00000230: 0939 d1bd fb10 bcbd c3b6 dcbd aa61 77bd
00000240: 1d1d 3cbe 8170 ddbe 58d5 06bf 56d7 f7be
00000250: 9664 0abf 0037 1bbf 8528 e6bc 2665 6c3c
00000260: 95d7 80be f0e3 77be 37ae bfbd 53dd e23b
00000270: 3584 4d3d 7987 54be a50c 49bb d42e f63d
00000280: 9a0e 89bd cfca debc e436 9fbd bc30 9b39
00000290: 4966 963d 269f 3cbe caf2 07be f5f9 553c
000002a0: fc46 9abd 9d69 b4bb 73dd debd 6ef6 d4bd
000002b0: b3b2 dfbd 0140 22bd c889 08be 9737 82bc
000002c0: 3f64 48bc 95a9 09bd 9d8d 233d 1e83 523d
000002d0: 3f8e 12be a7d8 b7bd 8d75 84bd b1b2 ae3d
000002e0: a86f 15b9 77c3 c83c c3b5 463d 376c 043d
000002f0: 64a4 9cbd ed2a 8cbd fbba 42bd f8a1 7ebd
00000300: 64b5 53bd 9185 36be eac5 0fbe b91e b53d
00000310: 0eaf 9dbd 3ea0 f8bd 6805 0fbe 2da7 8fbd
00000320: 50e4 813b 92b7 29be 43fe 64bd 4c3c 673d
00000330: ff80 ee3d 68d9 83bd 48ae ec3d 67e2 2d3e
00000340: 2333 343e cae3 8ebc 5087 8e3d ba81 7b3b
00000350: a6b4 903a 15ae f03d 443e 06bd 33d1 88be
00000360: 922f aabd 656d 0cbe 4836 17bd 7e0d c6bd
00000370: 7954 96bd a111 95bd bd57 bebd 7ee3 11be
00000380: 53ef 3f3d 55f3 e2bd 88f6 24be 4b27 843c
00000390: d59b 77bb 3f52 b5bd b305 e7bd a944 a1bc
000003a0: cfc4 dbbd abe6 bebd 8c14 60bd 1103 e8bd
000003b0: a37e 113d 1a0d 4bbd daf6 373b 0f6b 0d3c
000003c0: 4d60 76bd 3b66 85bc c66f cb3d fdc4 b43d
000003d0: 34ef ce3d e26c f13c dbc0 2a3e f813 103e
000003e0: 554a 8ebb b2c0 ea3d c411 d63d bdf9 0b3e
000003f0: f555 543e b6cb 4abc 26c9 583d c44a 4d3e

conv2.bias f4 [16]
-0.24607138 0.059811242 0.016149133 -0.22504307 -0.32579577 0.01229824 0.048038304 -0.7677724
0.46223998 -0.0252354 0.34374088 -0.11870057 0.5869383 -0.027023384 0.49891892 0.20013525
00000000: 23fa 7bbe a2fc 743d 304b 843c b171 66be
00000010: b4ce a6be 8f7e 493c d0c3 443d bb8c 44bf
00000020: b8aa ec3e 78ba cebc cefe af3e 4919 f3bd
00000030: 9741 163f 2560 ddbc 4d72 ff3e 41f0 4c3e

fc1.weight f4 [120, 400]
-0.104350485 -0.09494087 -0.0628196 -0.03501139 -0.06962925 -0.19589245 -0.40996256 -0.2030265
-0.06957302 0.0052482514 0.006933459 -0.12166307 -0.42769077 -0.22248037 -0.0102016 0.18802339
-0.0039346274 0.020664345 -0.043173593 0.17155068 0.19913077 -0.0073350864 0.016972605 0.023339218
0.13817209 -0.04776628 0.04419903 0.04502919 0.024014244 0.08223622 0.07935559 0.10277224
0.110885575 0.016401589 0.12214681 0.026545832 0.09034063 0.04645621 0.08020461 0.10434184
0.03406584 0.014021893 0.07726402 0.11606876 0.07768016 0.092406705 0.024332073 0.027438883
0.017594436 0.024838628 -0.43746033 -0.37603354 -0.31370056 -0.08787234 -0.2871495 -0.32262453
-0.3009571 -0.28035086 -0.1079456 0.12205916 -0.2006186 -0.09164427 -0.2779038 -0.26339492
0.1828242 -0.20211905 -0.03368537 -0.18203072 -0.18384805 -0.14846775 -0.07246054 -0.018879037
0.08072159 -0.07192355 -0.08704429 -0.3825449 -0.13740107 -0.32565618 -0.21957284 -0.11966758
-0.17010139 -0.19312643 -0.24826866 -0.19973505 -0.25590447 -0.15569778 -0.05167436 -0.022269104
-0.29826555 -0.1438077 0.022429341 -0.031744443 -0.06429358 -0.0832559 -0.057508588 -0.026069146
-0.13743365 -0.13734992 0.012228124 0.2229184 -0.10856425 -0.3530511 -0.048235666 0.024417998
0.06526616 -0.22535022 -0.07993855 0.13959104 -0.03278954 -0.059155747 -0.230453 -0.15885185
0.17013809 0.03055847 0.25534618 0.027015224 -0.12466746 -0.056256033 -0.11937542 0.17058419
0.41167688 0.0033929253 0.044469275 -0.015818696 0.12440774 0.104241 0.04039615 -0.18607184
0.020248726 -0.020369504 0.12408619 0.03202233 0.019158768 0.090374395 0.019205282 0.08214528
0.13194373 0.14116208 0.09339319 -0.0502511 -0.05234699 0.06648149 0.0054780375 0.005993344
-0.0037844211 -0.005029851 0.030526662 0.004929878 0.055135 0.0009392668 -0.20807576 -0.5185492
-0.12726472 -0.013395132 -0.12413385 -0.22849922 -0.03982582 0.04964264 0.17073387 -0.040144466
-0.047813836 0.16855316 0.03876343 0.21073799 0.04913036 -0.05747097 0.022141319 0.08727813
0.10617099 0.076775774 -0.017122582 -0.108205415 -0.19759828 -0.15995958 -0.08465704 -0.2992058
-0.18142833 -0.13255116 -0.17501698 -0.20115572 -0.25819886 -0.23839113 -0.1450529 -0.058319993
-0.057568647 -0.07767121 -0.19380444 -0.102638595 -0.12191603 -0.14818197 0.17162228 0.022251746
-0.14492202 -0.010178467 0.02134927 0.14909521 0.07035472 0.054868903 0.07373355 0.16910978
0.20273489 0.059848636 0.15375689 0.10281146 0.026410174 -0.036903504 -0.23587844 -0.18004842
-0.20574155 -0.016793996 0.071827665 -0.01942206 0.13933775 0.09957174 0.16525158 0.042195223
0.047278967 0.11728917 0.14663036 0.09555805 0.09380867 0.17738791 -0.00089677953 0.16684322
-0.07544827 0.06832869 -0.04138095 -0.006079232 -0.030625507 -0.08464526 0.10955057 -0.00078519806
-0.0173793 0.0017933091 -0.106734455 0.22307931 -0.06332326 -0.08459044 0.0017292817 0.09531972
0.24194196 -0.033686988 -0.116945654 -0.08379302 0.071910456 -0.01793331 0.09067553 0.07092692
0.06045397 0.09634382 0.019098738 0.025101876 0.038465425 -0.14105234 -0.02736802 0.11010421
00000000: b5b5 d5bd 5c70 c2bd 90a7 80bd 1a68 0fbd
00000010: c899 8ebd 0898 48be 9de6 d1be 2ee6 4fbe
00000020: 4d7c 8ebd 86f9 ab3b 1232 e33b 7d2a f9bd
00000030: 49fa dabe e5d1 63be 9d24 27bc 3489 403e
00000040: 0cee 80bb 4648 a93c cbd6 30bd fbaa 2f3e
00000050: f0e8 4b3e 2a5b f0bb 220a 8b3c e331 bf3c
00000060: fc7c 0d3e 93a6 43bd 0b0a 353d 8770 383d
00000070: 85b9 c43c 776b a83d 2f85 a23d 417a d23d
00000080: fa17 e33d a05c 863c 1b28 fa3d a576 d93c
00000090: 8204 b93d de48 3e3d 5142 a43d 2db1 d53d
000000a0: 9f88 0b3d 15bc 653c 993c 9e3d 75b5 ed3d
000000b0: c716 9f3d ba3f bd3d 0e54 c73c 82c7 e03c
000000c0: 3522 903c 617a cb3c cdfa dfbe 7887 c0be
000000d0: 5c9d a0be 6af6 b3bd 4205 93be 0b2f a5be
000000e0: 0d17 9abe 268a 8fbe 9512 ddbd 27fa f93d
000000f0: f66e 4dbe feaf bbbd 6849 8ebe b3db 86be
00000100: 4436 3b3e 4cf8 4ebe acf9 09bd 4366 3abe
00000110: aa42 3cbe ee07 18be 3166 94bd 36a8 9abc
00000120: 5c51 a53d a74c 93bd 4744 b2bd eddc c3be
00000130: deb2 0cbe 68bc a6be b4d7 60be 4714 f5bd
00000140: 0f2f 2ebe efc2 45be 243a 7ebe 5887 4cbe
00000150: e905 83be 3d6f 1fbe 7ea8 53bd b26d b6bc
00000160: 43b6 98be 5342 13be bdbd b73c 7606 02bd
00000170: 5aac 83bd 1282 aabd 208e 6bbd f68e d5bc
00000180: 68bb 0cbe 75a5 0cbe 7858 483c b944 643e
00000190: ef56 debd 1dc3 b4be c392 45bd 4108 c83c
000001a0: 44aa 853d 35c2 66be d3b6 a3bd f4f0 0e3e
000001b0: 534e 06bd 4c4d 72bd dffb 6bbe 0faa 22be
000001c0: ae38 2e3e c255 fa3c bcbc 823e 084f dd3c
000001d0: a751 ffbd ba6c 66bd 1a7b f4bd 9fad 2e3e
000001e0: 50c7 d23e d75b 5e3b 6a25 363d 3696 81bc
000001f0: 7cc9 fe3d 4e7c d53d 6f76 253d 9e89 3ebe
00000200: a8e0 a53c f2dd a6bc e620 fe3d d929 033d
00000210: d9f2 9c3c 3616 b93d 6554 9d3c c93b a83d
00000220: 421c 073e cb8c 103e ee44 bf3d 19d4 4dbd
00000230: cc69 56bd 7327 883d 1c81 b33b d063 c43b
00000240: 0d04 78bb 73d1 a4bb 0d13 fa3c d08a a13b
00000250: 3dd5 613d 2139 763a d011 55be a4bf 04bf
00000260: af51 02be 4177 5bbc e339 febd b3fb 69be
00000270: 6620 23bd 1556 4b3d dcd4 2e3e 866e 24bd
00000280: 71d8 43bd 3399 2c3e 67c6 1e3d b3cb 573e
00000290: eb3c 493d ae66 6bbd b661 b53c e0be b23d
000002a0: 2d70 d93d 9e3c 9d3d a844 8cbc cd9a ddbd
000002b0: 3457 4abe 72cc 23be ac60 adbd 8131 99be
000002c0: 59c8 39be 7ebb 07be a737 33be c4fb 4dbe
000002d0: a432 84be ce1c 74be bf88 14be f2e0 6ebd
000002e0: 1acd 6bbd 1512 9fbd ac74 46be 2f34 d2bd
000002f0: 1daf f9bd 04bd 17be c0bd 2f3e 4b49 b63c
00000300: 7066 14be 96c3 26bc aae4 ae3c 6aac 183e
00000310: 2316 903d 37be 603d 9e01 973d 1d2b 2d3e
00000320: bc99 4f3e d823 753d 7272 1d3e d18e d23d
00000330: 265a d83c 2128 17bd 1e8a 71be 9d5e 38be
00000340: eaad 52be 9093 89bc 621a 933d 031b 9fbc
00000350: 8eae 0e3e 45ec cb3d b637 293e e6d4 2c3d
00000360: 97a7 413d 4e35 f03d 4526 163e f0b3 c33d
00000370: c31e c03d 2da5 353e db15 6bba f3d8 2a3e
00000380: 9f84 9abd eaef 8b3d 127f 29bd 4b34 c7bb
00000390: 58e2 fabc 7e5a adbd 0d5c e03d c0d5 4dba
000003a0: 095f 8ebc 780d eb3a 9897 dabd e76e 643e
000003b0: a0af 81bd c13d adbd 11a9 e23a fc36 c33d
000003c0: a2bf 773e 5efb 09bd 3481 efbd ad9b abbd
000003d0: ca45 933d e0e8 92bc 18b4 b93d 2242 913d
000003e0: 959e 773d e94f c53d f574 9c3c 73a2 cd3c
000003f0: ec8d 1d3d 0670 10be e632 e0bc 517e e13d

fc1.bias f4 [120]
0.2279376 -0.27358526 0.1492902 -0.103406705 -0.025492337 -0.09819644 -0.025084862 0.09264876
0.25705773 0.029739352 -0.09883941 0.19426024 0.3155561 0.6616387 0.13640934 -0.028457154
-0.03843055 -0.08417362 -0.19677632 -0.017279565 -0.104705885 -0.0118797915 0.25130597 0.35207495
-0.0594992 -0.23934732 0.22434542 -0.14457184 0.16623355 -0.01782527 -0.000119388256 -0.111425005
-0.07054978 0.022825068 -0.07921514 -0.027128551 0.004213742 -0.5378905 -0.059336383 0.67287916
-0.03592012 -0.024095483 0.32854155 -0.06555242 0.11541592 0.5938355 -0.058948338 -0.07595275
-0.07703807 0.00065904006 -0.027637595 -0.011749877 0.03256661 -0.295819 -0.025150305 0.20560135
-0.07482546 -0.32392102 -0.044009726 -0.06331775 -0.09958839 -0.09036598 -0.012942075 -0.054035448
-0.14289019 -0.042946856 0.33878812 -0.5110558 0.26229066 0.004329927 0.43991503 0.36781222
0.018217985 -0.16056842 -0.026117023 -0.2661325 0.57440346 0.20637877 0.3777479 0.26033396
-0.05726708 -0.03456242 -0.085599944 -0.055000007 0.15702696 -0.057727393 0.29146942 -0.04461275
-0.08279268 -0.0043324106 0.3670579 -0.11778837 -0.05792484 0.058527578 -0.049959276 0.014417821
0.14292884 -0.4856298 -0.00956216 -0.08308353 -0.0303374 0.14047426 0.40549105 0.08171408
-0.028611353 -0.021528972 0.24969727 0.064886175 -0.053625476 -0.051507056 0.8486811 -0.06415467
-0.085614786 -0.035791036 0.011999368 0.29908642 0.0024108845 -0.0673196 0.1792309 -0.2560005
00000000: 7968 693e 5e13 8cbe 88df 183e e5c6 d3bd
00000010: 4ed5 d0bc 371b c9bd c57e cdbc a2be bd3d
00000020: 129d 833e f19f f33c 516c cabd 28ec 463e
00000030: 9290 a13e 2761 293f e4ae 0b3e fa1e e9bc
00000040: 5a69 1dbd 3863 acbd bb7f 49be e08d 8dbc
00000050: 0a70 d6bd 75a3 42bc 2dab 803e 2b43 b43e
00000060: 6fb5 73bd 7717 75be ceba 653e a40a 14be
00000070: 2139 2a3e 4d06 92bc 1560 fab8 cb32 e4bd
00000080: 677c 90bd a3fb ba3c 8c3b a2bd b23c debc
00000090: 6e13 8a3b 31b3 09bf b50a 73bd cf41 2c3f
000000a0: fa20 13bd e463 c5bc 9936 a83e 5940 86bd
000000b0: 2f5f ec3d 9a05 183f d073 71bd 1e8d 9bbd
000000c0: 23c6 9dbd 6ec3 2c3a 3d68 e2bc 8e82 40bc
000000d0: 9164 053d 9775 97be 0308 cebc 2989 523e
000000e0: 173e 99bd fad8 a5be 8b43 34bd bdac 81bd
000000f0: fff4 cbbd cd11 b9bd ff0a 54bc 4654 5dbd
00000100: ce51 12be 0be9 2fbd a375 ad3e 8ed4 02bf
00000110: f64a 863e 0fe2 8d3b 8b3c e13e e251 bc3e
00000120: e23d 953c 0c6c 24be 5ef3 d5bc 8542 88be
00000130: 1b0c 133f f554 533e 2c68 c13e 7e4a 853e
00000140: e390 6abd 5391 0dbd 064f afbd b047 61bd
00000150: adcb 203e 8f73 6cbd 7b3b 953e dcbb 36bd
00000160: 358f a9bd e5f6 8dbb 03ef bb3e 073b f1bd
00000170: 9942 6dbd 9dba 6f3d 19a2 4cbd b938 6c3c
00000180: f05b 123e 78a4 f8be 9baa 1cbc b327 aabd
00000190: 2486 f8bc 7cd8 0f3e 869c cf3e b659 a73d
000001a0: 5b62 eabc 875d b0bc a4b0 7f3e 0be3 843d
000001b0: 63a6 5bbd 10f9 52bd 2a43 593f 8663 83bd
000001c0: ce56 afbd 9f99 12bd ff98 443c db21 993e
000001d0: eeff 1d3b dcde 89bd 4e88 373e 7f12 83be

fc2.weight f4 [84, 120]
-0.23935795 0.025946187 -0.23725799 0.048526265 -0.22616012 0.08899401 0.088664204 -0.2601564
0.023853244 0.025751425 -0.09745464 -0.06754443 -0.029970312 -0.054621987 -0.017615551 -0.0019133843
-0.06813465 0.059091873 -0.013899178 -0.029691348 0.016691785 0.059553917 -0.0615083 0.064304866
-0.045901224 0.017946959 0.08771061 -0.07275957 0.06415626 0.03952082 0.018272499 0.10236742
-0.21845189 -0.047079638 -0.044299018 0.007606651 0.11622745 -0.13263008 -0.02678769 0.036832556
-0.014912011 0.046064135 0.06810897 0.037142754 -0.051017057 -0.059301108 0.01535796 0.060455304
0.0002821573 0.0044619143 0.018041769 0.067890696 -0.05630781 0.06582968 0.069828756 -0.1396269
-0.043428816 -0.007822861 0.07111567 -0.019222483 -0.053510074 0.034817897 -0.005626127 0.061123688
-0.02225924 -0.008985224 -0.093227044 -0.08617864 0.18396759 -0.004613834 0.122788556 0.045366287
-0.036999203 -0.19854209 -0.074023746 -0.009920171 0.1841875 -0.08934195 0.06460544 0.03047626
0.07135755 0.016602958 -0.046400554 -0.022632996 -0.2576326 0.052047748 0.035243213 -0.049513545
-0.13832745 0.04857066 0.00046398936 0.037185412 0.114295155 0.27943733 -0.00932032 -0.01850746
-0.027813442 -0.53236616 0.07284894 -0.07194088 -0.06465592 -0.20674972 -0.23405349 0.10216504
-0.024996351 -0.10618518 0.06831461 0.028232556 0.0854822 0.04944393 0.037133515 0.017023712
0.1763864 -0.027067631 0.043978278 -0.23358682 -0.030792704 -0.07988463 -0.2621372 -0.16793591
-0.06422974 -0.042488724 0.041605093 0.025220366 -0.13211219 0.0064001833 0.08573238 -0.1750207
-0.008142832 0.023712087 -0.030894015 -0.046787135 -0.29497516 -0.03661181 -0.14786904 -0.07741468
-0.08899477 -0.088562965 0.09090115 -0.06827507 -0.0634577 -0.08238673 -0.12376116 0.036569178
-0.04518617 -0.060306977 -0.085421376 0.0277034 -0.0728449 0.033793677 -0.07847454 -0.07220951
-0.0130415885 -0.06433604 -0.0029907285 0.047208432 -0.053950895 0.008245021 0.0014738728 -0.28653216
0.0076197973 0.031270072 -0.05087486 -0.271231 0.06767458 -0.12785415 -0.06875543 -0.028964952
0.03252542 -0.16685298 0.043007117 -0.01125279 -0.026299108 -0.16444607 0.043831628 0.01118584
0.032921005 -0.058477975 -0.03314125 -0.06134638 0.00939646 0.050981615 0.00796264 -0.08303754
0.060596466 0.005789251 -0.018641403 -0.06995416 -0.039832655 -0.09528219 0.0511335 -0.0739577
-0.054120705 0.010356208 0.079707615 -0.11278585 0.08386637 0.07458507 -0.018486181 0.08061463
0.073263615 0.06880368 -0.061478965 -0.0039510736 -0.1585562 -0.08991519 0.12108473 -0.005564905
0.078502506 0.04391627 -0.057011455 -0.113813475 0.0047371453 -0.08863934 -0.0053273495 -0.06684537
0.05053831 -0.3525025 0.011513815 0.039442148 0.015906917 -0.16248554 0.012407201 -0.25943524
-0.11588096 -0.05252292 -0.00071739685 -0.0054584276 0.0146755 0.07732181 -0.08563656 0.061952595
0.050526213 -0.053102132 -0.04118758 -0.21339814 -0.0036151318 -0.0053923028 -0.08091576 -0.01837016
-0.0038600843 -0.14423965 -0.1868366 -0.08562338 0.06428992 0.03152912 -0.0016851956 0.010419985
-0.1171089 0.013448276 0.045185197 -0.117654614 -0.006304205 0.010418369 -0.097688645 0.042844582
00000000: 401a 75be 198d d43c c2f3 72be 7ac3 463d
00000010: 8596 67be 7e42 b63d 9495 b53d 3833 85be
00000020: e167 c33c a7f4 d23c 4c96 c7bd bc54 8abd
00000030: 4d84 f5bc 4ebb 5fbd 7d4e 90bc 86ca faba
00000040: 2e8a 8bbd 520a 723d 61b9 63bc 453b f3bc
00000050: 36bd 883c cfee 733d 21f0 7bbd 45b2 833d
00000060: ec02 3cbd 8005 933c 9fa1 b33d f802 95bd
00000070: 5b64 833d 95e0 213d 35b0 953c 03a6 d13d
00000080: dab1 5fbe 94d6 40bd e372 35bd 3741 f93b
00000090: a808 ee3d 2ed0 07be dc71 dbbc bcdd 163d
000000a0: 8251 74bc bfad 3c3d b77c 8b3d 0023 183d
000000b0: 43f7 50bd b8e5 72bd f49f 7b3c fb9f 773d
000000c0: 83ee 9339 4035 923b 55cc 933c 470a 8b3d
000000d0: 05a3 66bd b6d1 863d 6102 8f3d 5bfa 0ebe
000000e0: 6ae2 31bd 752b 00bc 18a5 913d 7878 9dbc
000000f0: 612d 5bbd 369d 0e3d 605b b8bb d55c 7a3d
00000100: 0259 b6bc c336 13bc d2ed bebd 6d7e b0bd
00000110: 0062 3c3e a52f 97bb 9178 fb3d 00d2 393d
00000120: 7a8c 17bd 9e4e 4bbe c399 97bd 3788 22bc
00000130: a69b 3c3e eaf8 b6bd db4f 843d 5aa9 f93c
00000140: e823 923d ed02 883c 820e 3ebd d568 b9bc
00000150: 6ce8 83be 0530 553d 305b 103d b7ce 4abd
00000160: b6a5 0dbe 07f2 463d 9943 f339 bb4f 183d
00000170: 9413 ea3d 6912 8f3e 41b4 18bc f59c 97bc
00000180: 04d9 e3bc 2649 08bf d331 953d bd55 93bd
00000190: 536a 84bd 33b6 53be b8ab 6fbe e83b d13d
000001a0: 26c5 ccbc 9e77 d9bd 88e8 8b3d f647 e73c
000001b0: 4b11 af3d b885 4a3d 5019 183d 5075 8b3c
000001c0: a39e 343e f0bc ddbc 9122 343d 6231 6fbe
000001d0: fb40 fcbc 8e9a a3bd d936 86be 64f7 2bbe
000001e0: e28a 83bd a808 2ebd 1a6a 2a3d f19a ce3c
000001f0: 6b48 07be a1b8 d13b 7594 af3d a038 33be
00000200: 8369 05bc da3f c23c 7215 fdbc dea3 3fbd
00000210: fc06 97be 44f6 15bd fb6a 17be 968b 9ebd
00000220: e442 b6bd 8060 b5bd 622a ba3d cdd3 8bbd
00000230: 1cf6 81bd 60ba a8bd 7e76 fdbd 90c9 153d
00000240: 2215 39bd 7304 77bd 67f1 aebd 3ef2 e23c
00000250: b52f 95bd 3d6b 0a3d 42b7 a0bd 94e2 93bd
00000260: 63ac 55bc 9dc2 83bd 1900 44bb a15d 413d
00000270: 9dfb 5cbd 2016 073c f72e c13a 58b4 92be
00000280: 7eaf f93b 0c15 003d 2862 50bd cade 8abe
00000290: f898 8a3d 33ec 02be a6cf 8cbd e847 edbc
000002a0: 6039 053d 82db 2abe 3b28 303d 9f5d 38bc
000002b0: 3a71 d7bc 8d64 28be cb88 333d d044 373c
000002c0: 2dd8 063d 9a86 6fbd 1fbf 07bd 5746 7bbd
000002d0: 9cf3 193c 19d2 503d bc75 023c 960f aabd
000002e0: 0034 783d c2b3 bd3b dbb5 98bc 2044 8fbd
000002f0: 9127 23bd 4f23 c3bd 5c71 513d 2277 97bd
00000300: acad 5dbd 16ad 293c bf3d a33d 45fc e6bd
00000310: 22c2 ab3d 0fc0 983d 5570 97bc 4819 a53d
00000320: 3c0b 963d f2e8 8c3d 5ed1 7bbd 0278 81bb
00000330: 8e5c 22be 7525 b8bd 45fb f73d ce59 b6bb
00000340: ecc5 a03d 8ce1 333d d884 69bd 0a17 e9bd
00000350: 0e3a 9b3b 8b88 b5bd 0c91 aebb 3ae6 88bd
00000360: 4201 4f3d 357b b4be 71a4 3c3c 178e 213d
00000370: 394f 823c 9c62 26be 9347 4b3c b2d4 84be
00000380: ff52 edbd 4622 57bd b00f 3cba 9cdc b2bb
00000390: 8271 703c e65a 9e3d 3962 afbd 01c2 7d3d
000003a0: 93f4 4e3d 9f81 59bd 4fb4 28bd 0b85 5abe
000003b0: d9eb 6cbb eab1 b0bb 29b7 a5bd 057d 96bc
000003c0: 78f9 7cbb 8fb3 13be 1852 3fbe 505b afbd
000003d0: 6faa 833d ae24 013d c8e1 dcba 96b8 2a3c
000003e0: cad6 efbd 2856 5c3c 1d14 393d e7f4 f0bd
000003f0: 8193 cebb cfb1 2a3c fc10 c8bd cd7d 2f3d

fc2.bias f4 [84]
0.2976724 -0.24329188 -0.14399019 -0.0072616166 -0.24317576 0.8479201 0.13511965 0.0718766
0.12841135 0.4921513 0.018489296 0.5843496 -0.19655724 0.22008592 0.41430202 0.03294801
0.50153124 0.6203674 -0.19629379 0.5402514 0.08980632 -0.10317128 0.38464198 -0.1476265
-0.14334595 -0.21041158 -0.17602906 0.1013913 0.11833987 -0.19713213 -0.19899327 -0.14083193
-0.13939023 -0.050422337 0.2980302 -0.004598336 -0.22158064 -0.18174793 -0.13700128 0.11894768
-0.1666315 0.20190103 -0.031677727 0.63918644 -0.14369725 -0.05749012 -0.049740274 -0.0031520228
0.2810086 0.063270286 -0.088774994 -0.20144695 -0.20136167 0.102139436 0.70803285 0.3453407
-0.02601697 0.6095988 -0.04174026 0.027757183 0.042018816 -0.058654506 -0.04793802 0.27802327
0.6008661 0.5910003 0.6616205 0.06669041 0.015684398 0.036980096 0.49105814 -0.12385946
0.007586475 -0.19571258 0.10888484 0.19224977 0.04968323 -0.12788543 0.7463944 0.56489176
0.192992 0.523642 0.08604582 -0.12649503
00000000: 8468 983e 8221 79be 2a72 13be dbf2 edbb
00000010: 1103 79be 4b11 593f ce5c 0a3e 0a34 933d
00000020: 447e 033e 41fb fb3e dd76 973c ef97 153f
00000030: 4d46 49be 345e 613e 651f d43e 7ef4 063d
00000040: 5a64 003f 66d0 1e3f 3d01 49be ea4d 0a3f
00000050: 60ec b73d 774b d3bd cbef c43e 672b 17be
00000060: 48c9 12be 2276 57be f640 34be 3ea6 cf3d
00000070: 2c5c f23d 01dd 49be e4c4 4bbe 3f36 10be
00000080: 50bc 0ebe a787 4ebd 6a97 983e a3ad 96bb
00000090: 09e6 62be 211c 3abe 104a 0cbe d79a f33d
000000a0: 73a1 2abe 25bf 4e3e 81c0 01bd b9a1 233f
000000b0: 5f25 13be c37a 6bbd 75bc 4bbd 2b92 4ebb
000000c0: 5ce0 8f3e da93 813d aacf b5bd 1c48 4ebe
000000d0: c131 4ebe 7b2e d13d a441 353f 7fd0 b03e
000000e0: 8a21 d5bc ab0e 1c3f d6f7 2abd 0863 e33c
000000f0: ec1b 2c3d b53f 70bd a85a 44bd 1159 8e3e
00000100: 5cd2 193f cc4b 173f f65f 293f fb94 883d
00000110: 917c 803c 7178 173d f96b fb3e 07aa fdbd
00000120: f797 f83b e168 48be 04ff de3d 20dd 443e
00000130: a580 4b3d 66f4 02be b413 3f3f bf9c 103f
00000140: b29f 453e 670d 063f ca38 b03d ea87 01be

fc3.weight f4 [10, 84]
-0.0097242985 -0.17182516 -0.07439665 -0.1909276 0.017847933 -0.1368581 -0.15532275 0.09661336
0.012135302 -0.07696911 -0.102177165 -0.16197671 -0.14766502 -0.1689055 -0.25198564 -0.14231436
-0.112499595 -0.093318045 -0.06534619 -0.12831692 0.01814938 -0.119356975 -0.16285597 -0.070032716
-0.0074746585 -0.09761686 0.011722107 -0.17363158 0.032148615 -0.057517674 -0.0037745293 0.049421933
-0.06532236 -0.155067 -0.39655262 -0.07332385 -0.31853744 -0.17618923 -0.29874957 -0.01598981
-0.0019017946 0.13578679 -0.1729546 -0.36468855 -0.08146963 -0.093808986 -0.29960823 0.077464685
0.042073533 -0.014728898 -0.013552592 -0.52083755 -0.054525495 0.13221803 -0.22528665 -0.116036996
-0.3916998 -0.15842065 -0.20232072 -0.17405643 -0.18834078 -0.05015786 0.08410031 -0.11950019
0.10470435 -0.010470666 0.068869725 -0.022208752 -0.17428447 -0.078809485 -0.10868565 -0.19888008
0.0025913797 0.079455435 -0.0055741766 -0.15674688 -0.05990831 -0.20233047 -0.3679309 0.015601221
-0.035165243 0.043779932 -0.009126455 0.019637259 -0.1428819 -0.64943683 -0.09696753 -0.028957997
0.093183346 -0.38669437 -0.36273164 0.05505236 0.09578924 0.017658679 0.050927375 -0.14418514
-0.16736333 -0.39540368 -0.06777896 0.036522068 -0.18356976 -0.5360929 0.05074496 -0.24345393
0.139629 -0.18372448 -0.480283 0.07712748 -0.008676939 -0.11750615 0.073940165 -0.59693414
0.0067045097 -0.065966 -0.1531515 -0.32327554 -0.31647402 -0.1952573 -0.40255895 -0.20606674
-0.014002951 0.035573866 -0.055373676 0.22136554 -0.08209747 -0.00360078 -0.409289 -0.047773335
-0.07504639 -0.37284133 -0.16426395 0.08472071 0.09679768 -0.07058989 -0.07591493 0.031402767
0.15237962 -0.089376844 -0.25264287 -0.045363966 -0.32917497 -0.059156574 -0.16145955 -0.013906884
-0.77061725 -0.16769765 -0.2739555 -0.5281844 -0.1691508 0.032198448 -0.24898179 -0.18513776
-0.090694 -0.31999218 -0.31862965 0.08215574 0.056905355 0.10727243 -0.19491482 -0.28408903
-0.143088 0.055116 -0.19533896 -0.116434604 0.017077934 -0.09862968 -0.043743957 0.07899757
-0.124727145 0.05900226 -0.04488571 -0.118788786 -0.0830505 0.04086845 -0.2404794 -0.1293081
-0.1690579 -0.0935732 -0.027383126 0.02833065 0.012992492 -0.20620696 -0.036487646 -0.039916486
-0.0031648884 -0.030744301 0.016642971 0.092927545 -0.14116092 -0.04217822 0.079465106 -0.07726428
0.008477637 -0.09084792 -0.06962355 0.008337708 -0.1521888 -0.034271203 -0.15320937 0.08800051
-0.10281179 -0.13689797 -0.21569434 -0.007089286 -0.02917817 -0.10365001 -0.3242535 -0.11865468
0.015978364 -0.14362285 0.027571544 -0.06155338 -0.028370794 -0.08193356 -0.09908584 0.024219997
-0.17192835 0.014940117 0.0048543625 -0.097404815 -0.15498893 0.12092355 0.007375829 -0.22791514
-0.2661392 0.13163637 -0.2499413 -0.04140247 -0.17665508 0.03344214 -0.046706215 -0.05610013
0.12436659 -0.11095699 -0.012605349 -0.07841864 -0.25008133 -0.16761173 0.14255218 -0.02032112
-0.038436007 -0.076296 0.05778718 0.1629246 -0.12787057 -0.035848957 -0.016401958 -0.01872832
-0.2343229 -0.0046991245 -0.18327084 0.13257909 -0.21350011 -0.20975517 -0.07654408 -0.24798852
00000000: aa52 1fbc eff2 2fbe 455d 98bd 8682 43be
00000010: d435 923c 8824 0cbe ed0c 1fbe 3add c53d
00000020: 25d3 463c fba1 9dbd 4342 d1bd 39dd 25be
00000030: 8035 17be 90f5 2cbe 4304 81be dbba 11be
00000040: 3066 e6bd 881d bfbd 39d4 85bd 8365 03be
00000050: 02ae 943c 6e71 f4bd b7c3 26be 506d 8fbd
00000060: fbed f4bb 59eb c7bd 150e 403c 7acc 31be
00000070: 44ae 033d a797 6bbd 185e 77bb a76e 4a3d
00000080: bbc7 85bd e2c9 1ebe f208 cbbe d12a 96bd
00000090: 5717 a3be f36a 34be b4f5 98be 10fd 82bc
000000a0: a345 f9ba b10b 0b3e 031b 31be 75b8 babe
000000b0: 8dd9 a6bd ed1e c0bd 4066 99be cea5 9e3d
000000c0: 4c55 2c3d 7a51 71bc b10b 5ebc 9c55 05bf
000000d0: 2056 5fbd 2a64 073e 8bb1 66be cea4 edbd
000000e0: e08c c8be 0639 22be 2a2d 4fbe d93b 32be
000000f0: 68dc 40be 5472 4dbd c93c ac3d 84bc f4bd
00000100: 3c6f d63d 288d 2bbc 920b 8d3d 21ef b5bc
00000110: a177 32be de66 a1bd 9596 debd 38a7 4bbe
00000120: 23d4 293b 88b9 a23d 95a7 b6bb 4182 20be
00000130: 6b62 75bd b82f 4fbe 7061 bcbe 439c 7f3c
00000140: 6e09 10bd 9652 333d 2087 15bc 51de a03c
00000150: a24f 12be 7e41 26bf ea96 c6bd 5239 edbc
00000160: e9d6 be3d cefc c5be f6b7 b9be 957e 613d
00000170: 262d c43d efa8 903c 3999 503d 45a5 13be
00000180: 4b61 2bbe 5a72 cabe b2cf 8abd 2a98 153d
00000190: b6f9 3bbe 623d 09bf f2d9 4f3d fd4b 79be
000001a0: e8fa 0e3e 4522 3cbe a7e7 f5be 03f5 9d3d
000001b0: b829 0ebc 10a7 f0bd f16d 973d add0 18bf
000001c0: 81b1 db3b 2f19 87bd bfd3 1cbe 5f84 a5be
000001d0: e208 a2be 88f1 47be 351c cebe 2903 53be
000001e0: a26c 65bc e7b5 113d 82cf 62bd a6ad 623e
000001f0: b822 a8bd 10fb 6bbb 548e d1be f9ad 43bd
00000200: ecb1 99bd 0fe5 bebe cf34 28be 0d82 ad3d
00000210: dd3d c63d 6f91 90bd 4979 9bbd 30a0 003d
00000220: 6709 1c3e 350b b7bd 685a 81be 91cf 39bd
00000230: 9f89 a8be 2a4e 72bd a755 25be b3d9 63bc
00000240: 2c47 45bf efb8 2bbe e543 8cbe 1837 07bf
00000250: de35 2dbe 85e2 033d 15f5 7ebe c194 3dbe
00000260: c7bd b9bd 04d6 a3be 6d23 a3be 4541 a83d
00000270: 9715 693d a6b1 db3d c097 47be 1e74 91be
00000280: a985 12be 51c1 613d f006 48be 4475 eebd
00000290: 06e7 8b3c 5cfe c9bd dd2c 33bd 7ac9 a13d
000002a0: f270 ffbd 5bac 713d 14da 37bd 8947 f3bd
000002b0: 6116 aabd ad65 273d 3b40 76be 5869 04be
000002c0: 841d 2dbe 4ea3 bfbd 9452 e0bc ae15 e83c
000002d0: 76de 543c eb27 53be 1274 15bd 787f 23bd
000002e0: 046a 4fbb 79db fbbc d756 883c cc50 be3d
000002f0: 7d8c 10be 12c3 2cbd 9abe a23d bc3c 9ebd
00000300: c9e5 0a3c 790e babd cb96 8ebd e29a 083c
00000310: 61d7 1bbe f65f 0cbd ebe2 1cbe 9d39 b43d
00000320: fd8e d2bd fb2e 0cbe fade 5cbe 3e4d e8bb
00000330: 0f07 efbc 7546 d4bd 8e04 a6be 3a01 f3bd
00000340: 0fe5 823c de11 13be b8dd e13c 661f 7cbd
00000350: de69 e8bc c8cc a7bd 84ed cabd 0469 c63c
00000360: fc0d 30be 64c7 743c 5811 9f3b 2d7c c7bd
00000370: 6bb5 1ebe c4a6 f73d f0b0 f13b 9662 69be
00000380: 6643 88be afcb 063e 9df0 7fbe a395 29bd
00000390: 12e5 34be a0fa 083d 044f 3fbd 40c9 65bd
000003a0: e9b3 fe3d 6b3d e3bd aa86 4ebc f499 a0bd
000003b0: a90a 80be 69a2 2bbe 33f9 113e 7a78 a6bc
000003c0: 136f 1dbd 1441 9cbd 40b2 6c3d b5d5 263e
000003d0: 81f0 02be 5bd6 12bd 665d 86bc 226c 99bc
000003e0: 58f2 6fbe 1dfb 99bb 5aab 3bbe d0c2 073e
000003f0: c69f 5abe 0fca 56be 25c3 9cbd b4f0 7dbe

fc3.bias f4 [10]
-0.20071925 -0.37591806 0.13904259 0.14708275 0.4769515 -0.18340176 0.037743263 -0.20570737
0.30993584 -0.21971847
00000000: 5989 4dbe 5578 c0be 2e61 0e3e dc9c 163e
00000010: fd32 f43e accd 3bbe ae98 1a3d f4a4 52be
00000020: e9af 9e3e e1fd 60be
