sandbox/model.pth (torch, 2176 bytes, 3 tensors)

1.weight f4 [10, 2]
-0.5807361 0.4103257 0.20865868 0.069974385 -0.5420979 -0.25033686 0.22231029 -0.46028715
0.62014824 -0.2659074 -0.68285304 -0.111540034 0.06502837 0.48129272 -0.6569354 -0.37675285
0.6674023 0.22297385 0.12086106 -0.22844528
00000000: 1fab 14bf 3616 d23e 9faa 553e bb4e 8f3d
00000010: eec6 0abf 272c 80be 4fa5 633e c2aa ebbe
00000020: 09c2 1e3f 0425 88be 75cf 2ebf 1a6f e4bd
00000030: 982d 853d 006c f63e eb2c 28bf c0e5 c0be
00000040: e1da 2a3f 4253 643e 0186 f73d 8fed 69be

1.bias f4 [10]
-0.024765825 -0.18664572 0.4585808 -0.5778052 -0.40583462 -0.38936397 0.33317295 0.502427
0.42544115 -0.61224055
00000000: b3e1 cabc 0e20 3fbe 1acb ea3e 0beb 13bf
00000010: 8ec9 cfbe b75a c7be a595 aa3e 0e9f 003f
00000020: 6cd3 d93e ccbb 1cbf

3.weight f4 [1, 10]
0.003144293 0.25139692 0.123112746 -0.19224833 -0.28190246 0.084033325 -0.08923675 0.06795004
0.24508868 -0.049548108
00000000: 7c10 4e3b 19b7 803e 8922 fc3d bfdc 44be
00000010: 8555 90be aa19 ac3d c2c1 b6bd 6429 8b3d
00000020: 87f8 7a3e f5f2 4abd
