weights_and_biases_WandB/model.pth (torch, 2048 bytes, 3 tensors)

0.weight f4 [5, 2]
0	0xbe9474cb	-0.28995356
1	0xbf13f08f	-0.5778894
2	0xbf1b1fec	-0.60595584
3	0x3f03ccb5	0.51484233
4	0xbf01acc7	-0.5065426
5	0x3ee4dbce	0.44698948
6	0xbe227cdc	-0.15867943
7	0xbe87a3e3	-0.26492223
8	0xbe6574e2	-0.22407869
9	0xbf080da8	-0.5314584

0.bias f4 [5]
0	0x3e210a41	0.15726568
1	0x3f003766	0.5008453
2	0xbf165a69	-0.58731705
3	0x3ed1a55d	0.40946475
4	0x3da1113e	0.07864617

2.weight f4 [1, 5]
0	0x3ec479a0	0.38374043
1	0x3e8c7e26	0.27439994
2	0x3e858fc3	0.26086244
3	0x3eaff850	0.34369135
4	0x3e791b51	0.24326827
