serialization_saving_loading/model.pth (torch, 2176 bytes, 3 tensors)

1.weight f4 [10, 2]
00000000: 1f1b f7be 4c45 5f3e 025c 79be 7cde 5d3e
00000010: f8da 16be ce22 163f bd94 d6be 4ceb d7be
00000020: a3ee d7be 08d1 223f b14c 713e 9c2f 2e3f
00000030: 1664 15bf 7b8c 33bf 7b9f 0dbf 1a8a f3be
00000040: e4a3 923e 26a3 813e d369 163f 49f7 babe
-0.4826288 0.21803778 -0.24351504 0.21666902 -0.14731967 0.5864686 -0.41910353 -0.42171705
-0.42174253 0.63600206 0.23564412 0.68041396 -0.58355844 -0.7013623 -0.5532147 -0.475663
0.28640664 0.25319785 0.58755225 -0.3651679

1.bias f4 [10]
00000000: 58ce f6be fd16 c03e 7056 92be daba db3e
00000010: f2d2 2bbe 4d1a cf3e 6fa5 0cbf e6b3 b6be
00000020: 0ec1 5c3e 4e13 193e
-0.48204303 0.3751754 -0.28581572 0.42915994 -0.16779688 0.40449753 -0.5493993 -0.35684127
0.2155802 0.1494877

3.weight f4 [1, 10]
00000000: bd1e a5bd 7f04 413e 4a22 5c3e d9d2 6abe
00000010: 2fe0 2cbe e940 943e 6d88 dabd d798 e5bd
00000020: 73a9 9cbe c470 39be
-0.080625035 0.18849371 0.21497455 -0.22931994 -0.16882394 0.28955773 -0.106705524 -0.112107925
-0.3059803 -0.18109423
